…
up_k: 3
use_amp: True
use_xyz: True
visual: True
voxel_max: 80000
voxel_size: 0.005
warmup: linear
warmup_iters: 1500
warmup_ratio: 1e-06
weight: None
weight_decay: 0.01
window_size: [0.01, 0.02, 0.04, 0.08]
workers: 16
world_size: 3
[10/16 23:29:26] main-logger INFO: => creating model ...
[10/16 23:29:26] main-logger INFO: Classes: 10
[10/16 23:29:26] main-logger INFO: Stratified(
  (stem_layer): ModuleList(
    (0): KPConvSimpleBlock(
      (kpconv): KPConvLayer(InF: 6, OutF: 48, kernel_pts: 15, radius: 0.01, KP_influence: linear, Add_one: False)
      (bn): FastBatchNorm1d(
        (batch_norm): BatchNorm1d(48, eps=1e-05, momentum=0.02, affine=True, track_running_stats=True)
      )
      (activation): LeakyReLU(negative_slope=0.2)
    )
  )
  (layers): ModuleList(
    (0): BasicLayer(
      (blocks): ModuleList(
        (0): SwinTransformerBlock(
          (norm1): LayerNorm((48,), eps=1e-05, elementwise_affine=True)
          (attn): WindowAttention(
            (qkv): Linear(in_features=48, out_features=144, bias=True)
            (attn_drop): Dropout(p=0.0, inplace=True)
            (proj): Linear(in_features=48, out_features=48, bias=True)
            (proj_drop): Dropout(p=0.0, inplace=True)
            (softmax): Softmax(dim=-1)
          )
          (drop_path): Identity()
          (norm2): LayerNorm((48,), eps=1e-05, elementwise_affine=True)
          (mlp): Mlp(
            (fc1): Linear(in_features=48, out_features=192, bias=True)
            (act): GELU()
            (fc2): Linear(in_features=192, out_features=48, bias=True)
            (drop): Dropout(p=0.0, inplace=True)
          )
        )
        (1): SwinTransformerBlock(
          (norm1): LayerNorm((48,), eps=1e-05, elementwise_affine=True)
          (attn): WindowAttention(
            (qkv): Linear(in_features=48, out_features=144, bias=True)
            (attn_drop): Dropout(p=0.0, inplace=True)
            (proj): Linear(in_features=48, out_features=48, bias=True)
            (proj_drop): Dropout(p=0.0, inplace=True)
            (softmax): Softmax(dim=-1)
          )
          (drop_path): DropPath(drop_prob=0.027)
          (norm2): LayerNorm((48,), eps=1e-05, elementwise_affine=True)
          (mlp): Mlp(
            (fc1): Linear(in_features=48, out_features=192, bias=True)
            (act): GELU()
            (fc2): Linear(in_features=192, out_features=48, bias=True)
            (drop): Dropout(p=0.0, inplace=True)
          )
        )
      )
      (downsample): TransitionDown(
        (norm): LayerNorm((48,), eps=1e-05, elementwise_affine=True)
        (linear): Linear(in_features=48, out_features=96, bias=False)
        (pool): MaxPool1d(kernel_size=16, stride=16, padding=0, dilation=1, ceil_mode=False)
      )
    )
    (1): BasicLayer(
      (blocks): ModuleList(
        (0): SwinTransformerBlock(
          (norm1): LayerNorm((96,), eps=1e-05, elementwise_affine=True)
          (attn): WindowAttention(
            (qkv): Linear(in_features=96, out_features=288, bias=True)
            (attn_drop): Dropout(p=0.0, inplace=True)
            (proj): Linear(in_features=96, out_features=96, bias=True)
            (proj_drop): Dropout(p=0.0, inplace=True)
            (softmax): Softmax(dim=-1)
          )
          (drop_path): DropPath(drop_prob=0.055)
          (norm2): LayerNorm((96,), eps=1e-05, elementwise_affine=True)
          (mlp): Mlp(
            (fc1): Linear(in_features=96, out_features=384, bias=True)
            (act): GELU()
            (fc2): Linear(in_features=384, out_features=96, bias=True)
            (drop): Dropout(p=0.0, inplace=True)
          )
        )
        (1): SwinTransformerBlock(
          (norm1): LayerNorm((96,), eps=1e-05, elementwise_affine=True)
          (attn): WindowAttention(
            (qkv): Linear(in_features=96, out_features=288, bias=True)
            (attn_drop): Dropout(p=0.0, inplace=True)
            (proj): Linear(in_features=96, out_features=96, bias=True)
            (proj_drop): Dropout(p=0.0, inplace=True)
            (softmax): Softmax(dim=-1)
          )
          (drop_path): DropPath(drop_prob=0.082)
          (norm2): LayerNorm((96,), eps=1e-05, elementwise_affine=True)
          (mlp): Mlp(
            (fc1): Linear(in_features=96, out_features=384, bias=True)
            (act): GELU()
            (fc2): Linear(in_features=384, out_features=96, bias=True)
            (drop): Dropout(p=0.0, inplace=True)
          )
        )
      )
      (downsample): TransitionDown(
        (norm): LayerNorm((96,), eps=1e-05, elementwise_affine=True)
        (linear): Linear(in_features=96, out_features=192, bias=False)
        (pool): MaxPool1d(kernel_size=16, stride=16, padding=0, dilation=1, ceil_mode=False)
      )
    )
    (2): BasicLayer(
      (blocks): ModuleList(
        (0): SwinTransformerBlock(
          (norm1): LayerNorm((192,), eps=1e-05, elementwise_affine=True)
          (attn): WindowAttention(
            (qkv): Linear(in_features=192, out_features=576, bias=True)
            (attn_drop): Dropout(p=0.0, inplace=True)
            (proj): Linear(in_features=192, out_features=192, bias=True)
            (proj_drop): Dropout(p=0.0, inplace=True)
            (softmax): Softmax(dim=-1)
          )
          (drop_path): DropPath(drop_prob=0.109)
          (norm2): LayerNorm((192,), eps=1e-05, elementwise_affine=True)
          (mlp): Mlp(
            (fc1): Linear(in_features=192, out_features=768, bias=True)
            (act): GELU()
            (fc2): Linear(in_features=768, out_features=192, bias=True)
            (drop): Dropout(p=0.0, inplace=True)
          )
        )
        (1): SwinTransformerBlock(
          (norm1): LayerNorm((192,), eps=1e-05, elementwise_affine=True)
          (attn): WindowAttention(
            (qkv): Linear(in_features=192, out_features=576, bias=True)
            (attn_drop): Dropout(p=0.0, inplace=True)
            (proj): Linear(in_features=192, out_features=192, bias=True)
            (proj_drop): Dropout(p=0.0, inplace=True)
            (softmax): Softmax(dim=-1)
          )
          (drop_path): DropPath(drop_prob=0.136)
          (norm2): LayerNorm((192,), eps=1e-05, elementwise_affine=True)
          (mlp): Mlp(
            (fc1): Linear(in_features=192, out_features=768, bias=True)
            (act): GELU()
            (fc2): Linear(in_features=768, out_features=192, bias=True)
            (drop): Dropout(p=0.0, inplace=True)
          )
        )
        (2): SwinTransformerBlock(
          (norm1): LayerNorm((192,), eps=1e-05, elementwise_affine=True)
          (attn): WindowAttention(
            (qkv): Linear(in_features=192, out_features=576, bias=True)
            (attn_drop): Dropout(p=0.0, inplace=True)
            (proj): Linear(in_features=192, out_features=192, bias=True)
            (proj_drop): Dropout(p=0.0, inplace=True)
            (softmax): Softmax(dim=-1)
          )
          (drop_path): DropPath(drop_prob=0.164)
          (norm2): LayerNorm((192,), eps=1e-05, elementwise_affine=True)
          (mlp): Mlp(
            (fc1): Linear(in_features=192, out_features=768, bias=True)
            (act): GELU()
            (fc2): Linear(in_features=768, out_features=192, bias=True)
            (drop): Dropout(p=0.0, inplace=True)
          )
        )
        (3): SwinTransformerBlock(
          (norm1): LayerNorm((192,), eps=1e-05, elementwise_affine=True)
          (attn): WindowAttention(
            (qkv): Linear(in_features=192, out_features=576, bias=True)
            (attn_drop): Dropout(p=0.0, inplace=True)
            (proj): Linear(in_features=192, out_features=192, bias=True)
            (proj_drop): Dropout(p=0.0, inplace=True)
            (softmax): Softmax(dim=-1)
          )
          (drop_path): DropPath(drop_prob=0.191)
          (norm2): LayerNorm((192,), eps=1e-05, elementwise_affine=True)
          (mlp): Mlp(
            (fc1): Linear(in_features=192, out_features=768, bias=True)
            (act): GELU()
            (fc2): Linear(in_features=768, out_features=192, bias=True)
            (drop): Dropout(p=0.0, inplace=True)
          )
        )
        (4): SwinTransformerBlock(
          (norm1): LayerNorm((192,), eps=1e-05, elementwise_affine=True)
          (attn): WindowAttention(
            (qkv): Linear(in_features=192, out_features=576, bias=True)
            (attn_drop): Dropout(p=0.0, inplace=True)
            (proj): Linear(in_features=192, out_features=192, bias=True)
            (proj_drop): Dropout(p=0.0, inplace=True)
            (softmax): Softmax(dim=-1)
          )
          (drop_path): DropPath(drop_prob=0.218)
          (norm2): LayerNorm((192,), eps=1e-05, elementwise_affine=True)
          (mlp): Mlp(
            (fc1): Linear(in_features=192, out_features=768, bias=True)
            (act): GELU()
            (fc2): Linear(in_features=768, out_features=192, bias=True)
            (drop): Dropout(p=0.0, inplace=True)
          )
        )
        (5): SwinTransformerBlock(
          (norm1): LayerNorm((192,), eps=1e-05, elementwise_affine=True)
          (attn): WindowAttention(
            (qkv): Linear(in_features=192, out_features=576, bias=True)
            (attn_drop): Dropout(p=0.0, inplace=True)
            (proj): Linear(in_features=192, out_features=192, bias=True)
            (proj_drop): Dropout(p=0.0, inplace=True)
            (softmax): Softmax(dim=-1)
          )
          (drop_path): DropPath(drop_prob=0.245)
          (norm2): LayerNorm((192,), eps=1e-05, elementwise_affine=True)
          (mlp): Mlp(
            (fc1): Linear(in_features=192, out_features=768, bias=True)
            (act): GELU()
            (fc2): Linear(in_features=768, out_features=192, bias=True)
            (drop): Dropout(p=0.0, inplace=True)
          )
        )
      )
      (downsample): TransitionDown(
        (norm): LayerNorm((192,), eps=1e-05, elementwise_affine=True)
        (linear): Linear(in_features=192, out_features=384, bias=False)
        (pool): MaxPool1d(kernel_size=16, stride=16, padding=0, dilation=1, ceil_mode=False)
      )
    )
    (3): BasicLayer(
      (blocks): ModuleList(
        (0): SwinTransformerBlock(
          (norm1): LayerNorm((384,), eps=1e-05, elementwise_affine=True)
          (attn): WindowAttention(
            (qkv): Linear(in_features=384, out_features=1152, bias=True)
            (attn_drop): Dropout(p=0.0, inplace=True)
            (proj): Linear(in_features=384, out_features=384, bias=True)
            (proj_drop): Dropout(p=0.0, inplace=True)
            (softmax): Softmax(dim=-1)
          )
          (drop_path): DropPath(drop_prob=0.273)
          (norm2): LayerNorm((384,), eps=1e-05, elementwise_affine=True)
          (mlp): Mlp(
            (fc1): Linear(in_features=384, out_features=1536, bias=True)
            (act): GELU()
            (fc2): Linear(in_features=1536, out_features=384, bias=True)
            (drop): Dropout(p=0.0, inplace=True)
          )
        )
        (1): SwinTransformerBlock(
          (norm1): LayerNorm((384,), eps=1e-05, elementwise_affine=True)
          (attn): WindowAttention(
            (qkv): Linear(in_features=384, out_features=1152, bias=True)
            (attn_drop): Dropout(p=0.0, inplace=True)
            (proj): Linear(in_features=384, out_features=384, bias=True)
            (proj_drop): Dropout(p=0.0, inplace=True)
            (softmax): Softmax(dim=-1)
          )
          (drop_path): DropPath(drop_prob=0.300)
          (norm2): LayerNorm((384,), eps=1e-05, elementwise_affine=True)
          (mlp): Mlp(
            (fc1): Linear(in_features=384, out_features=1536, bias=True)
            (act): GELU()
            (fc2): Linear(in_features=1536, out_features=384, bias=True)
            (drop): Dropout(p=0.0, inplace=True)
          )
        )
      )
    )
  )
  (upsamples): ModuleList(
    (0): Upsample(
      (linear1): Sequential(
        (0): LayerNorm((192,), eps=1e-05, elementwise_affine=True)
        (1): Linear(in_features=192, out_features=192, bias=True)
      )
      (linear2): Sequential(
        (0): LayerNorm((384,), eps=1e-05, elementwise_affine=True)
        (1): Linear(in_features=384, out_features=192, bias=True)
      )
    )
    (1): Upsample(
      (linear1): Sequential(
        (0): LayerNorm((96,), eps=1e-05, elementwise_affine=True)
        (1): Linear(in_features=96, out_features=96, bias=True)
      )
      (linear2): Sequential(
        (0): LayerNorm((192,), eps=1e-05, elementwise_affine=True)
        (1): Linear(in_features=192, out_features=96, bias=True)
      )
    )
    (2): Upsample(
      (linear1): Sequential(
        (0): LayerNorm((48,), eps=1e-05, elementwise_affine=True)
        (1): Linear(in_features=48, out_features=48, bias=True)
      )
      (linear2): Sequential(
        (0): LayerNorm((96,), eps=1e-05, elementwise_affine=True)
        (1): Linear(in_features=96, out_features=48, bias=True)
      )
    )
  )
  (classifier): Sequential(
    (0): Linear(in_features=48, out_features=48, bias=True)
    (1): BatchNorm1d(48, eps=1e-05, momentum=0.1, affine=True, track_running_stats=True)
    (2): ReLU(inplace=True)
    (3): Linear(in_features=48, out_features=10, bias=True)
  )
  (embedding): Sequential(
    (0): Linear(in_features=48, out_features=48, bias=True)
    (1): BatchNorm1d(48, eps=1e-05, momentum=0.1, affine=True, track_running_stats=True)
    (2): ReLU(inplace=True)
    (3): Linear(in_features=48, out_features=48, bias=True)
  )
  (boundary): Sequential(
    (0): Linear(in_features=48, out_features=48, bias=True)
    (1): BatchNorm1d(48, eps=1e-05, momentum=0.1, affine=True, track_running_stats=True)
    (2): ReLU(inplace=True)
    (3): Linear(in_features=48, out_features=2, bias=True)
  )
)
[10/16 23:29:26] main-logger INFO: #Model parameters: 6837849
[10/16 23:29:26] main-logger INFO: use SyncBN
[10/16 23:29:32] main-logger INFO: => loading weight '/home/fz20/Project/Prim-Stratified-Transformer/runs-5/abc/model/model_best.pth'
[10/16 23:29:33] main-logger INFO: => loaded weight '/home/fz20/Project/Prim-Stratified-Transformer/runs-5/abc/model/model_best.pth'
…
